…
2026-04-11 15:45:46 | INFO    | edgeyolo.train.trainer:load_dataloader:178 - prefetcher loaded!
2026-04-11 15:45:46 | INFO    | edgeyolo.train.trainer:load_lr_scheduler:257 - init learning rate scheduler...
2026-04-11 15:45:46 | INFO    | edgeyolo.train.trainer:load_evaluator:184 - loading evaluator...
2026-04-11 15:45:46 | INFO    | edgeyolo.train.trainer:load_evaluator:219 - evaluator loaded.
2026-04-11 15:45:46 | INFO    | edgeyolo.train.trainer:before_train:355 - Training start...
2026-04-11 15:45:46 | INFO    | edgeyolo.train.trainer:before_train:357 - 
Model(
  (model): Sequential(
    (0): RepConv(
      (act): SiLU()
      (rbr_dense): Sequential(
        (0): Conv2d(3, 24, kernel_size=(3, 3), stride=(1, 1), padding=(1, 1), bias=False)
        (1): BatchNorm2d(24, eps=0.001, momentum=0.03, affine=True, track_running_stats=True)
      )
      (rbr_1x1): Sequential(
        (0): Conv2d(3, 24, kernel_size=(1, 1), stride=(1, 1), bias=False)
        (1): BatchNorm2d(24, eps=0.001, momentum=0.03, affine=True, track_running_stats=True)
      )
    )
    (1): RepConv(
      (act): SiLU()
      (rbr_dense): Sequential(
        (0): Conv2d(24, 48, kernel_size=(3, 3), stride=(2, 2), padding=(1, 1), bias=False)
        (1): BatchNorm2d(48, eps=0.001, momentum=0.03, affine=True, track_running_stats=True)
      )
      (rbr_1x1): Sequential(
        (0): Conv2d(24, 48, kernel_size=(1, 1), stride=(2, 2), bias=False)
        (1): BatchNorm2d(48, eps=0.001, momentum=0.03, affine=True, track_running_stats=True)
      )
    )
    (2): RepConv(
      (act): SiLU()
      (rbr_identity): BatchNorm2d(48, eps=0.001, momentum=0.03, affine=True, track_running_stats=True)
      (rbr_dense): Sequential(
        (0): Conv2d(48, 48, kernel_size=(3, 3), stride=(1, 1), padding=(1, 1), bias=False)
        (1): BatchNorm2d(48, eps=0.001, momentum=0.03, affine=True, track_running_stats=True)
      )
      (rbr_1x1): Sequential(
        (0): Conv2d(48, 48, kernel_size=(1, 1), stride=(1, 1), bias=False)
        (1): BatchNorm2d(48, eps=0.001, momentum=0.03, affine=True, track_running_stats=True)
      )
    )
    (3): RepConv(
      (act): SiLU()
      (rbr_dense): Sequential(
        (0): Conv2d(48, 64, kernel_size=(3, 3), stride=(2, 2), padding=(1, 1), bias=False)
        (1): BatchNorm2d(64, eps=0.001, momentum=0.03, affine=True, track_running_stats=True)
      )
      (rbr_1x1): Sequential(
        (0): Conv2d(48, 64, kernel_size=(1, 1), stride=(2, 2), bias=False)
        (1): BatchNorm2d(64, eps=0.001, momentum=0.03, affine=True, track_running_stats=True)
      )
    )
    (4): Conv(
      (conv): Conv2d(64, 32, kernel_size=(1, 1), stride=(1, 1), bias=False)
      (bn): BatchNorm2d(32, eps=0.001, momentum=0.03, affine=True, track_running_stats=True)
      (act): SiLU()
    )
    (5): Conv(
      (conv): Conv2d(64, 32, kernel_size=(1, 1), stride=(1, 1), bias=False)
      (bn): BatchNorm2d(32, eps=0.001, momentum=0.03, affine=True, track_running_stats=True)
      (act): SiLU()
    )
    (6): RepConv(
      (act): SiLU()
      (rbr_identity): BatchNorm2d(32, eps=0.001, momentum=0.03, affine=True, track_running_stats=True)
      (rbr_dense): Sequential(
        (0): Conv2d(32, 32, kernel_size=(3, 3), stride=(1, 1), padding=(1, 1), bias=False)
        (1): BatchNorm2d(32, eps=0.001, momentum=0.03, affine=True, track_running_stats=True)
      )
      (rbr_1x1): Sequential(
        (0): Conv2d(32, 32, kernel_size=(1, 1), stride=(1, 1), bias=False)
        (1): BatchNorm2d(32, eps=0.001, momentum=0.03, affine=True, track_running_stats=True)
      )
    )
    (7): RepConv(
      (act): SiLU()
      (rbr_identity): BatchNorm2d(32, eps=0.001, momentum=0.03, affine=True, track_running_stats=True)
      (rbr_dense): Sequential(
        (0): Conv2d(32, 32, kernel_size=(3, 3), stride=(1, 1), padding=(1, 1), bias=False)
        (1): BatchNorm2d(32, eps=0.001, momentum=0.03, affine=True, track_running_stats=True)
      )
      (rbr_1x1): Sequential(
        (0): Conv2d(32, 32, kernel_size=(1, 1), stride=(1, 1), bias=False)
        (1): BatchNorm2d(32, eps=0.001, momentum=0.03, affine=True, track_running_stats=True)
      )
    )
    (8): RepConv(
      (act): SiLU()
      (rbr_identity): BatchNorm2d(32, eps=0.001, momentum=0.03, affine=True, track_running_stats=True)
      (rbr_dense): Sequential(
        (0): Conv2d(32, 32, kernel_size=(3, 3), stride=(1, 1), padding=(1, 1), bias=False)
        (1): BatchNorm2d(32, eps=0.001, momentum=0.03, affine=True, track_running_stats=True)
      )
      (rbr_1x1): Sequential(
        (0): Conv2d(32, 32, kernel_size=(1, 1), stride=(1, 1), bias=False)
        (1): BatchNorm2d(32, eps=0.001, momentum=0.03, affine=True, track_running_stats=True)
      )
    )
    (9): RepConv(
      (act): SiLU()
      (rbr_identity): BatchNorm2d(32, eps=0.001, momentum=0.03, affine=True, track_running_stats=True)
      (rbr_dense): Sequential(
        (0): Conv2d(32, 32, kernel_size=(3, 3), stride=(1, 1), padding=(1, 1), bias=False)
        (1): BatchNorm2d(32, eps=0.001, momentum=0.03, affine=True, track_running_stats=True)
      )
      (rbr_1x1): Sequential(
        (0): Conv2d(32, 32, kernel_size=(1, 1), stride=(1, 1), bias=False)
        (1): BatchNorm2d(32, eps=0.001, momentum=0.03, affine=True, track_running_stats=True)
      )
    )
    (10): Shortcut()
    (11): Shortcut()
    (12): Concat()
    (13): Conv(
      (conv): Conv2d(128, 96, kernel_size=(1, 1), stride=(1, 1), bias=False)
      (bn): BatchNorm2d(96, eps=0.001, momentum=0.03, affine=True, track_running_stats=True)
      (act): SiLU()
    )
    (14): MP(
      (m): MaxPool2d(kernel_size=2, stride=2, padding=0, dilation=1, ceil_mode=False)
    )
    (15): Conv(
      (conv): Conv2d(96, 64, kernel_size=(1, 1), stride=(1, 1), bias=False)
      (bn): BatchNorm2d(64, eps=0.001, momentum=0.03, affine=True, track_running_stats=True)
      (act): SiLU()
    )
    (16): Conv(
      (conv): Conv2d(96, 64, kernel_size=(1, 1), stride=(1, 1), bias=False)
      (bn): BatchNorm2d(64, eps=0.001, momentum=0.03, affine=True, track_running_stats=True)
      (act): SiLU()
    )
    (17): RepConv(
      (act): SiLU()
      (rbr_dense): Sequential(
        (0): Conv2d(64, 64, kernel_size=(3, 3), stride=(2, 2), padding=(1, 1), bias=False)
        (1): BatchNorm2d(64, eps=0.001, momentum=0.03, affine=True, track_running_stats=True)
      )
      (rbr_1x1): Sequential(
        (0): Conv2d(64, 64, kernel_size=(1, 1), stride=(2, 2), bias=False)
        (1): BatchNorm2d(64, eps=0.001, momentum=0.03, affine=True, track_running_stats=True)
      )
    )
    (18): Concat()
    (19): Conv(
      (conv): Conv2d(128, 64, kernel_size=(1, 1), stride=(1, 1), bias=False)
      (bn): BatchNorm2d(64, eps=0.001, momentum=0.03, affine=True, track_running_stats=True)
      (act): SiLU()
    )
    (20): Conv(
      (conv): Conv2d(128, 64, kernel_size=(1, 1), stride=(1, 1), bias=False)
      (bn): BatchNorm2d(64, eps=0.001, momentum=0.03, affine=True, track_running_stats=True)
      (act): SiLU()
    )
    (21): Conv(
      (conv): Conv2d(64, 64, kernel_size=(3, 3), stride=(1, 1), padding=(1, 1), groups=64, bias=False)
      (bn): BatchNorm2d(64, eps=0.001, momentum=0.03, affine=True, track_running_stats=True)
      (act): SiLU()
    )
    (22): RepConv(
      (act): SiLU()
      (rbr_identity): BatchNorm2d(64, eps=0.001, momentum=0.03, affine=True, track_running_stats=True)
      (rbr_dense): Sequential(
        (0): Conv2d(64, 64, kernel_size=(3, 3), stride=(1, 1), padding=(1, 1), bias=False)
        (1): BatchNorm2d(64, eps=0.001, momentum=0.03, affine=True, track_running_stats=True)
      )
      (rbr_1x1): Sequential(
        (0): Conv2d(64, 64, kernel_size=(1, 1), stride=(1, 1), bias=False)
        (1): BatchNorm2d(64, eps=0.001, momentum=0.03, affine=True, track_running_stats=True)
      )
    )
    (23): Conv(
      (conv): Conv2d(64, 64, kernel_size=(3, 3), stride=(1, 1), padding=(1, 1), groups=64, bias=False)
      (bn): BatchNorm2d(64, eps=0.001, momentum=0.03, affine=True, track_running_stats=True)
      (act): SiLU()
    )
    (24): RepConv(
      (act): SiLU()
      (rbr_identity): BatchNorm2d(64, eps=0.001, momentum=0.03, affine=True, track_running_stats=True)
      (rbr_dense): Sequential(
        (0): Conv2d(64, 64, kernel_size=(3, 3), stride=(1, 1), padding=(1, 1), bias=False)
        (1): BatchNorm2d(64, eps=0.001, momentum=0.03, affine=True, track_running_stats=True)
      )
      (rbr_1x1): Sequential(
        (0): Conv2d(64, 64, kernel_size=(1, 1), stride=(1, 1), bias=False)
        (1): BatchNorm2d(64, eps=0.001, momentum=0.03, affine=True, track_running_stats=True)
      )
    )
    (25): Shortcut()
    (26): Shortcut()
    (27): Concat()
    (28): Conv(
      (conv): Conv2d(256, 184, kernel_size=(1, 1), stride=(1, 1), bias=False)
      (bn): BatchNorm2d(184, eps=0.001, momentum=0.03, affine=True, track_running_stats=True)
      (act): SiLU()
    )
    (29): MP(
      (m): MaxPool2d(kernel_size=2, stride=2, padding=0, dilation=1, ceil_mode=False)
    )
    (30): Conv(
      (conv): Conv2d(184, 120, kernel_size=(1, 1), stride=(1, 1), bias=False)
      (bn): BatchNorm2d(120, eps=0.001, momentum=0.03, affine=True, track_running_stats=True)
      (act): SiLU()
    )
    (31): Conv(
      (conv): Conv2d(184, 120, kernel_size=(1, 1), stride=(1, 1), bias=False)
      (bn): BatchNorm2d(120, eps=0.001, momentum=0.03, affine=True, track_running_stats=True)
      (act): SiLU()
    )
    (32): RepConv(
      (act): SiLU()
      (rbr_dense): Sequential(
        (0): Conv2d(120, 120, kernel_size=(3, 3), stride=(2, 2), padding=(1, 1), bias=False)
        (1): BatchNorm2d(120, eps=0.001, momentum=0.03, affine=True, track_running_stats=True)
      )
      (rbr_1x1): Sequential(
        (0): Conv2d(120, 120, kernel_size=(1, 1), stride=(2, 2), bias=False)
        (1): BatchNorm2d(120, eps=0.001, momentum=0.03, affine=True, track_running_stats=True)
      )
    )
    (33): Concat()
    (34): Conv(
      (conv): Conv2d(240, 120, kernel_size=(1, 1), stride=(1, 1), bias=False)
      (bn): BatchNorm2d(120, eps=0.001, momentum=0.03, affine=True, track_running_stats=True)
      (act): SiLU()
    )
    (35): Conv(
      (conv): Conv2d(240, 120, kernel_size=(1, 1), stride=(1, 1), bias=False)
      (bn): BatchNorm2d(120, eps=0.001, momentum=0.03, affine=True, track_running_stats=True)
      (act): SiLU()
    )
    (36): Conv(
      (conv): Conv2d(120, 120, kernel_size=(3, 3), stride=(1, 1), padding=(1, 1), groups=120, bias=False)
      (bn): BatchNorm2d(120, eps=0.001, momentum=0.03, affine=True, track_running_stats=True)
      (act): SiLU()
    )
    (37): RepConv(
      (act): SiLU()
      (rbr_identity): BatchNorm2d(120, eps=0.001, momentum=0.03, affine=True, track_running_stats=True)
      (rbr_dense): Sequential(
        (0): Conv2d(120, 120, kernel_size=(3, 3), stride=(1, 1), padding=(1, 1), bias=False)
        (1): BatchNorm2d(120, eps=0.001, momentum=0.03, affine=True, track_running_stats=True)
      )
      (rbr_1x1): Sequential(
        (0): Conv2d(120, 120, kernel_size=(1, 1), stride=(1, 1), bias=False)
        (1): BatchNorm2d(120, eps=0.001, momentum=0.03, affine=True, track_running_stats=True)
      )
    )
    (38): Conv(
      (conv): Conv2d(120, 120, kernel_size=(3, 3), stride=(1, 1), padding=(1, 1), groups=120, bias=False)
      (bn): BatchNorm2d(120, eps=0.001, momentum=0.03, affine=True, track_running_stats=True)
      (act): SiLU()
    )
    (39): RepConv(
      (act): SiLU()
      (rbr_identity): BatchNorm2d(120, eps=0.001, momentum=0.03, affine=True, track_running_stats=True)
      (rbr_dense): Sequential(
        (0): Conv2d(120, 120, kernel_size=(3, 3), stride=(1, 1), padding=(1, 1), bias=False)
        (1): BatchNorm2d(120, eps=0.001, momentum=0.03, affine=True, track_running_stats=True)
      )
      (rbr_1x1): Sequential(
        (0): Conv2d(120, 120, kernel_size=(1, 1), stride=(1, 1), bias=False)
        (1): BatchNorm2d(120, eps=0.001, momentum=0.03, affine=True, track_running_stats=True)
      )
    )
    (40): Shortcut()
    (41): Shortcut()
    (42): Concat()
    (43): Conv(
      (conv): Conv2d(480, 360, kernel_size=(1, 1), stride=(1, 1), bias=False)
      (bn): BatchNorm2d(360, eps=0.001, momentum=0.03, affine=True, track_running_stats=True)
      (act): SiLU()
    )
    (44): MP(
      (m): MaxPool2d(kernel_size=2, stride=2, padding=0, dilation=1, ceil_mode=False)
    )
    (45): Conv(
      (conv): Conv2d(360, 240, kernel_size=(1, 1), stride=(1, 1), bias=False)
      (bn): BatchNorm2d(240, eps=0.001, momentum=0.03, affine=True, track_running_stats=True)
      (act): SiLU()
    )
    (46): Conv(
      (conv): Conv2d(360, 240, kernel_size=(1, 1), stride=(1, 1), bias=False)
      (bn): BatchNorm2d(240, eps=0.001, momentum=0.03, affine=True, track_running_stats=True)
      (act): SiLU()
    )
    (47): RepConv(
      (act): SiLU()
      (rbr_dense): Sequential(
        (0): Conv2d(240, 240, kernel_size=(3, 3), stride=(2, 2), padding=(1, 1), bias=False)
        (1): BatchNorm2d(240, eps=0.001, momentum=0.03, affine=True, track_running_stats=True)
      )
      (rbr_1x1): Sequential(
        (0): Conv2d(240, 240, kernel_size=(1, 1), stride=(2, 2), bias=False)
        (1): BatchNorm2d(240, eps=0.001, momentum=0.03, affine=True, track_running_stats=True)
      )
    )
    (48): Concat()
    (49): Conv(
      (conv): Conv2d(480, 120, kernel_size=(1, 1), stride=(1, 1), bias=False)
      (bn): BatchNorm2d(120, eps=0.001, momentum=0.03, affine=True, track_running_stats=True)
      (act): SiLU()
    )
    (50): Conv(
      (conv): Conv2d(480, 120, kernel_size=(1, 1), stride=(1, 1), bias=False)
      (bn): BatchNorm2d(120, eps=0.001, momentum=0.03, affine=True, track_running_stats=True)
      (act): SiLU()
    )
    (51): Conv(
      (conv): Conv2d(120, 120, kernel_size=(3, 3), stride=(1, 1), padding=(1, 1), groups=120, bias=False)
      (bn): BatchNorm2d(120, eps=0.001, momentum=0.03, affine=True, track_running_stats=True)
      (act): SiLU()
    )
    (52): RepConv(
      (act): SiLU()
      (rbr_identity): BatchNorm2d(120, eps=0.001, momentum=0.03, affine=True, track_running_stats=True)
      (rbr_dense): Sequential(
        (0): Conv2d(120, 120, kernel_size=(3, 3), stride=(1, 1), padding=(1, 1), bias=False)
        (1): BatchNorm2d(120, eps=0.001, momentum=0.03, affine=True, track_running_stats=True)
      )
      (rbr_1x1): Sequential(
        (0): Conv2d(120, 120, kernel_size=(1, 1), stride=(1, 1), bias=False)
        (1): BatchNorm2d(120, eps=0.001, momentum=0.03, affine=True, track_running_stats=True)
      )
    )
    (53): Conv(
      (conv): Conv2d(120, 120, kernel_size=(3, 3), stride=(1, 1), padding=(1, 1), groups=120, bias=False)
      (bn): BatchNorm2d(120, eps=0.001, momentum=0.03, affine=True, track_running_stats=True)
      (act): SiLU()
    )
    (54): Conv(
      (conv): Conv2d(120, 120, kernel_size=(3, 3), stride=(1, 1), padding=(1, 1), bias=False)
      (bn): BatchNorm2d(120, eps=0.001, momentum=0.03, affine=True, track_running_stats=True)
      (act): SiLU()
    )
    (55): Shortcut()
    (56): Shortcut()
    (57): Concat()
    (58): Conv(
      (conv): Conv2d(480, 360, kernel_size=(1, 1), stride=(1, 1), bias=False)
      (bn): BatchNorm2d(360, eps=0.001, momentum=0.03, affine=True, track_running_stats=True)
      (act): SiLU()
    )
    (59): SPPCSPC(
      (cv1): Conv(
        (conv): Conv2d(360, 184, kernel_size=(1, 1), stride=(1, 1), bias=False)
        (bn): BatchNorm2d(184, eps=0.001, momentum=0.03, affine=True, track_running_stats=True)
        (act): SiLU()
      )
      (cv2): Conv(
        (conv): Conv2d(360, 184, kernel_size=(1, 1), stride=(1, 1), bias=False)
        (bn): BatchNorm2d(184, eps=0.001, momentum=0.03, affine=True, track_running_stats=True)
        (act): SiLU()
      )
      (cv3): Conv(
        (conv): Conv2d(184, 184, kernel_size=(3, 3), stride=(1, 1), padding=(1, 1), bias=False)
        (bn): BatchNorm2d(184, eps=0.001, momentum=0.03, affine=True, track_running_stats=True)
        (act): SiLU()
      )
      (cv4): Conv(
        (conv): Conv2d(184, 184, kernel_size=(1, 1), stride=(1, 1), bias=False)
        (bn): BatchNorm2d(184, eps=0.001, momentum=0.03, affine=True, track_running_stats=True)
        (act): SiLU()
      )
      (m): ModuleList(
        (0): MaxPool2d(kernel_size=5, stride=1, padding=2, dilation=1, ceil_mode=False)
        (1): MaxPool2d(kernel_size=9, stride=1, padding=4, dilation=1, ceil_mode=False)
        (2): MaxPool2d(kernel_size=13, stride=1, padding=6, dilation=1, ceil_mode=False)
      )
      (cv5): Conv(
        (conv): Conv2d(736, 184, kernel_size=(1, 1), stride=(1, 1), bias=False)
        (bn): BatchNorm2d(184, eps=0.001, momentum=0.03, affine=True, track_running_stats=True)
        (act): SiLU()
      )
      (cv6): Conv(
        (conv): Conv2d(184, 184, kernel_size=(3, 3), stride=(1, 1), padding=(1, 1), bias=False)
        (bn): BatchNorm2d(184, eps=0.001, momentum=0.03, affine=True, track_running_stats=True)
        (act): SiLU()
      )
      (cv7): Conv(
        (conv): Conv2d(368, 184, kernel_size=(1, 1), stride=(1, 1), bias=False)
        (bn): BatchNorm2d(184, eps=0.001, momentum=0.03, affine=True, track_running_stats=True)
        (act): SiLU()
      )
    )
    (60): Conv(
      (conv): Conv2d(184, 96, kernel_size=(1, 1), stride=(1, 1), bias=False)
      (bn): BatchNorm2d(96, eps=0.001, momentum=0.03, affine=True, track_running_stats=True)
      (act): SiLU()
    )
    (61): Upsample(scale_factor=2.0, mode='nearest')
    (62): Conv(
      (conv): Conv2d(360, 96, kernel_size=(1, 1), stride=(1, 1), bias=False)
      (bn): BatchNorm2d(96, eps=0.001, momentum=0.03, affine=True, track_running_stats=True)
      (act): SiLU()
    )
    (63): Concat()
    (64): Conv(
      (conv): Conv2d(192, 96, kernel_size=(1, 1), stride=(1, 1), bias=False)
      (bn): BatchNorm2d(96, eps=0.001, momentum=0.03, affine=True, track_running_stats=True)
      (act): SiLU()
    )
    (65): Conv(
      (conv): Conv2d(192, 96, kernel_size=(1, 1), stride=(1, 1), bias=False)
      (bn): BatchNorm2d(96, eps=0.001, momentum=0.03, affine=True, track_running_stats=True)
      (act): SiLU()
    )
    (66): Conv(
      (conv): Conv2d(96, 48, kernel_size=(3, 3), stride=(1, 1), padding=(1, 1), groups=48, bias=False)
      (bn): BatchNorm2d(48, eps=0.001, momentum=0.03, affine=True, track_running_stats=True)
      (act): SiLU()
    )
    (67): RepConv(
      (act): SiLU()
      (rbr_identity): BatchNorm2d(48, eps=0.001, momentum=0.03, affine=True, track_running_stats=True)
      (rbr_dense): Sequential(
        (0): Conv2d(48, 48, kernel_size=(3, 3), stride=(1, 1), padding=(1, 1), bias=False)
        (1): BatchNorm2d(48, eps=0.001, momentum=0.03, affine=True, track_running_stats=True)
      )
      (rbr_1x1): Sequential(
        (0): Conv2d(48, 48, kernel_size=(1, 1), stride=(1, 1), bias=False)
        (1): BatchNorm2d(48, eps=0.001, momentum=0.03, affine=True, track_running_stats=True)
      )
    )
    (68): Conv(
      (conv): Conv2d(48, 48, kernel_size=(3, 3), stride=(1, 1), padding=(1, 1), groups=48, bias=False)
      (bn): BatchNorm2d(48, eps=0.001, momentum=0.03, affine=True, track_running_stats=True)
      (act): SiLU()
    )
    (69): RepConv(
      (act): SiLU()
      (rbr_identity): BatchNorm2d(48, eps=0.001, momentum=0.03, affine=True, track_running_stats=True)
      (rbr_dense): Sequential(
        (0): Conv2d(48, 48, kernel_size=(3, 3), stride=(1, 1), padding=(1, 1), bias=False)
        (1): BatchNorm2d(48, eps=0.001, momentum=0.03, affine=True, track_running_stats=True)
      )
      (rbr_1x1): Sequential(
        (0): Conv2d(48, 48, kernel_size=(1, 1), stride=(1, 1), bias=False)
        (1): BatchNorm2d(48, eps=0.001, momentum=0.03, affine=True, track_running_stats=True)
      )
    )
    (70): Concat()
    (71): Conv(
      (conv): Conv2d(384, 96, kernel_size=(1, 1), stride=(1, 1), bias=False)
      (bn): BatchNorm2d(96, eps=0.001, momentum=0.03, affine=True, track_running_stats=True)
      (act): SiLU()
    )
    (72): Conv(
      (conv): Conv2d(96, 48, kernel_size=(1, 1), stride=(1, 1), bias=False)
      (bn): BatchNorm2d(48, eps=0.001, momentum=0.03, affine=True, track_running_stats=True)
      (act): SiLU()
    )
    (73): Upsample(scale_factor=2.0, mode='nearest')
    (74): Conv(
      (conv): Conv2d(184, 48, kernel_size=(1, 1), stride=(1, 1), bias=False)
      (bn): BatchNorm2d(48, eps=0.001, momentum=0.03, affine=True, track_running_stats=True)
      (act): SiLU()
    )
    (75): Concat()
    (76): Conv(
      (conv): Conv2d(96, 48, kernel_size=(1, 1), stride=(1, 1), bias=False)
      (bn): BatchNorm2d(48, eps=0.001, momentum=0.03, affine=True, track_running_stats=True)
      (act): SiLU()
    )
    (77): Conv(
      (conv): Conv2d(96, 48, kernel_size=(1, 1), stride=(1, 1), bias=False)
      (bn): BatchNorm2d(48, eps=0.001, momentum=0.03, affine=True, track_running_stats=True)
      (act): SiLU()
    )
    (78): Conv(
      (conv): Conv2d(48, 24, kernel_size=(3, 3), stride=(1, 1), padding=(1, 1), groups=24, bias=False)
      (bn): BatchNorm2d(24, eps=0.001, momentum=0.03, affine=True, track_running_stats=True)
      (act): SiLU()
    )
    (79): RepConv(
      (act): SiLU()
      (rbr_identity): BatchNorm2d(24, eps=0.001, momentum=0.03, affine=True, track_running_stats=True)
      (rbr_dense): Sequential(
        (0): Conv2d(24, 24, kernel_size=(3, 3), stride=(1, 1), padding=(1, 1), bias=False)
        (1): BatchNorm2d(24, eps=0.001, momentum=0.03, affine=True, track_running_stats=True)
      )
      (rbr_1x1): Sequential(
        (0): Conv2d(24, 24, kernel_size=(1, 1), stride=(1, 1), bias=False)
        (1): BatchNorm2d(24, eps=0.001, momentum=0.03, affine=True, track_running_stats=True)
      )
    )
    (80): Conv(
      (conv): Conv2d(24, 24, kernel_size=(3, 3), stride=(1, 1), padding=(1, 1), groups=24, bias=False)
      (bn): BatchNorm2d(24, eps=0.001, momentum=0.03, affine=True, track_running_stats=True)
      (act): SiLU()
    )
    (81): RepConv(
      (act): SiLU()
      (rbr_identity): BatchNorm2d(24, eps=0.001, momentum=0.03, affine=True, track_running_stats=True)
      (rbr_dense): Sequential(
        (0): Conv2d(24, 24, kernel_size=(3, 3), stride=(1, 1), padding=(1, 1), bias=False)
        (1): BatchNorm2d(24, eps=0.001, momentum=0.03, affine=True, track_running_stats=True)
      )
      (rbr_1x1): Sequential(
        (0): Conv2d(24, 24, kernel_size=(1, 1), stride=(1, 1), bias=False)
        (1): BatchNorm2d(24, eps=0.001, momentum=0.03, affine=True, track_running_stats=True)
      )
    )
    (82): Concat()
    (83): Conv(
      (conv): Conv2d(192, 48, kernel_size=(1, 1), stride=(1, 1), bias=False)
      (bn): BatchNorm2d(48, eps=0.001, momentum=0.03, affine=True, track_running_stats=True)
      (act): SiLU()
    )
    (84): MP(
      (m): MaxPool2d(kernel_size=2, stride=2, padding=0, dilation=1, ceil_mode=False)
    )
    (85): Conv(
      (conv): Conv2d(48, 48, kernel_size=(1, 1), stride=(1, 1), bias=False)
      (bn): BatchNorm2d(48, eps=0.001, momentum=0.03, affine=True, track_running_stats=True)
      (act): SiLU()
    )
    (86): Conv(
      (conv): Conv2d(48, 48, kernel_size=(1, 1), stride=(1, 1), bias=False)
      (bn): BatchNorm2d(48, eps=0.001, momentum=0.03, affine=True, track_running_stats=True)
      (act): SiLU()
    )
    (87): RepConv(
      (act): SiLU()
      (rbr_dense): Sequential(
        (0): Conv2d(48, 48, kernel_size=(3, 3), stride=(2, 2), padding=(1, 1), bias=False)
        (1): BatchNorm2d(48, eps=0.001, momentum=0.03, affine=True, track_running_stats=True)
      )
      (rbr_1x1): Sequential(
        (0): Conv2d(48, 48, kernel_size=(1, 1), stride=(2, 2), bias=False)
        (1): BatchNorm2d(48, eps=0.001, momentum=0.03, affine=True, track_running_stats=True)
      )
    )
    (88): Concat()
    (89): Conv(
      (conv): Conv2d(192, 96, kernel_size=(1, 1), stride=(1, 1), bias=False)
      (bn): BatchNorm2d(96, eps=0.001, momentum=0.03, affine=True, track_running_stats=True)
      (act): SiLU()
    )
    (90): Conv(
      (conv): Conv2d(192, 96, kernel_size=(1, 1), stride=(1, 1), bias=False)
      (bn): BatchNorm2d(96, eps=0.001, momentum=0.03, affine=True, track_running_stats=True)
      (act): SiLU()
    )
    (91): Conv(
      (conv): Conv2d(96, 48, kernel_size=(3, 3), stride=(1, 1), padding=(1, 1), groups=48, bias=False)
      (bn): BatchNorm2d(48, eps=0.001, momentum=0.03, affine=True, track_running_stats=True)
      (act): SiLU()
    )
    (92): RepConv(
      (act): SiLU()
      (rbr_identity): BatchNorm2d(48, eps=0.001, momentum=0.03, affine=True, track_running_stats=True)
      (rbr_dense): Sequential(
        (0): Conv2d(48, 48, kernel_size=(3, 3), stride=(1, 1), padding=(1, 1), bias=False)
        (1): BatchNorm2d(48, eps=0.001, momentum=0.03, affine=True, track_running_stats=True)
      )
      (rbr_1x1): Sequential(
        (0): Conv2d(48, 48, kernel_size=(1, 1), stride=(1, 1), bias=False)
        (1): BatchNorm2d(48, eps=0.001, momentum=0.03, affine=True, track_running_stats=True)
      )
    )
    (93): Conv(
      (conv): Conv2d(48, 48, kernel_size=(3, 3), stride=(1, 1), padding=(1, 1), groups=48, bias=False)
      (bn): BatchNorm2d(48, eps=0.001, momentum=0.03, affine=True, track_running_stats=True)
      (act): SiLU()
    )
    (94): RepConv(
      (act): SiLU()
      (rbr_identity): BatchNorm2d(48, eps=0.001, momentum=0.03, affine=True, track_running_stats=True)
      (rbr_dense): Sequential(
        (0): Conv2d(48, 48, kernel_size=(3, 3), stride=(1, 1), padding=(1, 1), bias=False)
        (1): BatchNorm2d(48, eps=0.001, momentum=0.03, affine=True, track_running_stats=True)
      )
      (rbr_1x1): Sequential(
        (0): Conv2d(48, 48, kernel_size=(1, 1), stride=(1, 1), bias=False)
        (1): BatchNorm2d(48, eps=0.001, momentum=0.03, affine=True, track_running_stats=True)
      )
    )
    (95): Concat()
    (96): Conv(
      (conv): Conv2d(384, 96, kernel_size=(1, 1), stride=(1, 1), bias=False)
      (bn): BatchNorm2d(96, eps=0.001, momentum=0.03, affine=True, track_running_stats=True)
      (act): SiLU()
    )
    (97): MP(
      (m): MaxPool2d(kernel_size=2, stride=2, padding=0, dilation=1, ceil_mode=False)
    )
    (98): Conv(
      (conv): Conv2d(96, 96, kernel_size=(1, 1), stride=(1, 1), bias=False)
      (bn): BatchNorm2d(96, eps=0.001, momentum=0.03, affine=True, track_running_stats=True)
      (act): SiLU()
    )
    (99): Conv(
      (conv): Conv2d(96, 96, kernel_size=(1, 1), stride=(1, 1), bias=False)
      (bn): BatchNorm2d(96, eps=0.001, momentum=0.03, affine=True, track_running_stats=True)
      (act): SiLU()
    )
    (100): RepConv(
      (act): SiLU()
      (rbr_dense): Sequential(
        (0): Conv2d(96, 96, kernel_size=(3, 3), stride=(2, 2), padding=(1, 1), bias=False)
        (1): BatchNorm2d(96, eps=0.001, momentum=0.03, affine=True, track_running_stats=True)
      )
      (rbr_1x1): Sequential(
        (0): Conv2d(96, 96, kernel_size=(1, 1), stride=(2, 2), bias=False)
        (1): BatchNorm2d(96, eps=0.001, momentum=0.03, affine=True, track_running_stats=True)
      )
    )
    (101): Concat()
    (102): Conv(
      (conv): Conv2d(376, 184, kernel_size=(1, 1), stride=(1, 1), bias=False)
      (bn): BatchNorm2d(184, eps=0.001, momentum=0.03, affine=True, track_running_stats=True)
      (act): SiLU()
    )
    (103): Conv(
      (conv): Conv2d(376, 184, kernel_size=(1, 1), stride=(1, 1), bias=False)
      (bn): BatchNorm2d(184, eps=0.001, momentum=0.03, affine=True, track_running_stats=True)
      (act): SiLU()
    )
    (104): Conv(
      (conv): Conv2d(184, 96, kernel_size=(3, 3), stride=(1, 1), padding=(1, 1), groups=8, bias=False)
      (bn): BatchNorm2d(96, eps=0.001, momentum=0.03, affine=True, track_running_stats=True)
      (act): SiLU()
    )
    (105): RepConv(
      (act): SiLU()
      (rbr_identity): BatchNorm2d(96, eps=0.001, momentum=0.03, affine=True, track_running_stats=True)
      (rbr_dense): Sequential(
        (0): Conv2d(96, 96, kernel_size=(3, 3), stride=(1, 1), padding=(1, 1), bias=False)
        (1): BatchNorm2d(96, eps=0.001, momentum=0.03, affine=True, track_running_stats=True)
      )
      (rbr_1x1): Sequential(
        (0): Conv2d(96, 96, kernel_size=(1, 1), stride=(1, 1), bias=False)
        (1): BatchNorm2d(96, eps=0.001, momentum=0.03, affine=True, track_running_stats=True)
      )
    )
    (106): Conv(
      (conv): Conv2d(96, 96, kernel_size=(3, 3), stride=(1, 1), padding=(1, 1), groups=96, bias=False)
      (bn): BatchNorm2d(96, eps=0.001, momentum=0.03, affine=True, track_running_stats=True)
      (act): SiLU()
    )
    (107): RepConv(
      (act): SiLU()
      (rbr_identity): BatchNorm2d(96, eps=0.001, momentum=0.03, affine=True, track_running_stats=True)
      (rbr_dense): Sequential(
        (0): Conv2d(96, 96, kernel_size=(3, 3), stride=(1, 1), padding=(1, 1), bias=False)
        (1): BatchNorm2d(96, eps=0.001, momentum=0.03, affine=True, track_running_stats=True)
      )
      (rbr_1x1): Sequential(
        (0): Conv2d(96, 96, kernel_size=(1, 1), stride=(1, 1), bias=False)
        (1): BatchNorm2d(96, eps=0.001, momentum=0.03, affine=True, track_running_stats=True)
      )
    )
    (108): Concat()
    (109): Conv(
      (conv): Conv2d(752, 184, kernel_size=(1, 1), stride=(1, 1), bias=False)
      (bn): BatchNorm2d(184, eps=0.001, momentum=0.03, affine=True, track_running_stats=True)
      (act): SiLU()
    )
    (110): RepConv(
      (act): SiLU()
      (rbr_dense): Sequential(
        (0): Conv2d(48, 96, kernel_size=(3, 3), stride=(1, 1), padding=(1, 1), bias=False)
        (1): BatchNorm2d(96, eps=0.001, momentum=0.03, affine=True, track_running_stats=True)
      )
      (rbr_1x1): Sequential(
        (0): Conv2d(48, 96, kernel_size=(1, 1), stride=(1, 1), bias=False)
        (1): BatchNorm2d(96, eps=0.001, momentum=0.03, affine=True, track_running_stats=True)
      )
    )
    (111): RepConv(
      (act): SiLU()
      (rbr_dense): Sequential(
        (0): Conv2d(96, 184, kernel_size=(3, 3), stride=(1, 1), padding=(1, 1), bias=False)
        (1): BatchNorm2d(184, eps=0.001, momentum=0.03, affine=True, track_running_stats=True)
      )
      (rbr_1x1): Sequential(
        (0): Conv2d(96, 184, kernel_size=(1, 1), stride=(1, 1), bias=False)
        (1): BatchNorm2d(184, eps=0.001, momentum=0.03, affine=True, track_running_stats=True)
      )
    )
    (112): RepConv(
      (act): SiLU()
      (rbr_dense): Sequential(
        (0): Conv2d(184, 360, kernel_size=(3, 3), stride=(1, 1), padding=(1, 1), bias=False)
        (1): BatchNorm2d(360, eps=0.001, momentum=0.03, affine=True, track_running_stats=True)
      )
      (rbr_1x1): Sequential(
        (0): Conv2d(184, 360, kernel_size=(1, 1), stride=(1, 1), bias=False)
        (1): BatchNorm2d(360, eps=0.001, momentum=0.03, affine=True, track_running_stats=True)
      )
    )
    (113): YOLOXDetect(
      (stems): ModuleList(
        (0): Conv(
          (conv): Conv2d(96, 96, kernel_size=(1, 1), stride=(1, 1), bias=False)
          (bn): BatchNorm2d(96, eps=0.001, momentum=0.03, affine=True, track_running_stats=True)
          (act): SiLU()
        )
        (1): Conv(
          (conv): Conv2d(184, 96, kernel_size=(1, 1), stride=(1, 1), bias=False)
          (bn): BatchNorm2d(96, eps=0.001, momentum=0.03, affine=True, track_running_stats=True)
          (act): SiLU()
        )
        (2): Conv(
          (conv): Conv2d(360, 96, kernel_size=(1, 1), stride=(1, 1), bias=False)
          (bn): BatchNorm2d(96, eps=0.001, momentum=0.03, affine=True, track_running_stats=True)
          (act): SiLU()
        )
      )
      (cls_convs): ModuleList(
        (0-2): 3 x RepConv(
          (act): SiLU()
          (rbr_identity): BatchNorm2d(96, eps=0.001, momentum=0.03, affine=True, track_running_stats=True)
          (rbr_dense): Sequential(
            (0): Conv2d(96, 96, kernel_size=(3, 3), stride=(1, 1), padding=(1, 1), bias=False)
            (1): BatchNorm2d(96, eps=0.001, momentum=0.03, affine=True, track_running_stats=True)
          )
          (rbr_1x1): Sequential(
            (0): Conv2d(96, 96, kernel_size=(1, 1), stride=(1, 1), bias=False)
            (1): BatchNorm2d(96, eps=0.001, momentum=0.03, affine=True, track_running_stats=True)
          )
        )
      )
      (reg_convs): ModuleList(
        (0-2): 3 x RepConv(
          (act): SiLU()
          (rbr_identity): BatchNorm2d(96, eps=0.001, momentum=0.03, affine=True, track_running_stats=True)
          (rbr_dense): Sequential(
            (0): Conv2d(96, 96, kernel_size=(3, 3), stride=(1, 1), padding=(1, 1), bias=False)
            (1): BatchNorm2d(96, eps=0.001, momentum=0.03, affine=True, track_running_stats=True)
          )
          (rbr_1x1): Sequential(
            (0): Conv2d(96, 96, kernel_size=(1, 1), stride=(1, 1), bias=False)
            (1): BatchNorm2d(96, eps=0.001, momentum=0.03, affine=True, track_running_stats=True)
          )
        )
      )
      (cls_preds): ModuleList(
        (0-2): 3 x Conv2d(96, 2, kernel_size=(1, 1), stride=(1, 1))
      )
      (reg_preds): ModuleList(
        (0-2): 3 x Conv2d(96, 4, kernel_size=(1, 1), stride=(1, 1))
      )
      (obj_preds): ModuleList(
        (0-2): 3 x Conv2d(96, 1, kernel_size=(1, 1), stride=(1, 1))
…
